LeNet.pth (torch, 180783 bytes, 10 tensors)

features.0.weight f4 [6, 1, 5, 5]
00000000: d004 62bd 2b00 abbe 331a 1c3f dbf3 71be
00000010: 5307 ee3c 6c1a 12be 08e1 1c3e 5334 503e
00000020: 8994 15be 11fd b2bd 274d 273e 8d20 9bbe
00000030: d7e7 e53d ea49 c93e 6c3c 36be 0c5d 80bc
00000040: b1f1 25bf 5084 0ebe acf0 2e3f 594b 8a3e
00000050: eb47 343e e2ce f8be 7f15 d3be 421a 953e
00000060: 8895 333e c2fa 553e fd5c 413e 759d cdbe
00000070: 5622 a83e fdd0 8ebe b3ae a7bd 5278 dc3d
00000080: f389 e2be dfad 043f dd0d 4dbe a483 71be
00000090: b3bc ee3e 21ca b6be a4a8 293d 8513 3f3d
000000a0: 05b5 ee3d 5f6a f33d 12ab 833d 2ce4 d43d
000000b0: c1f6 c8be a153 a93e f2ad f53d 91b5 9abe
000000c0: 5d55 2f3e 31c3 663d 66f5 87bc 84c1 e03b
000000d0: 70fb b5bd b9bf eb3d b0b3 69bc f6b2 cdbe
000000e0: 0e1d a73d be1c 1abe 5d61 dd3d b90f 9c3d
000000f0: 9ae3 68be 6368 b9be 9030 d1bd 8530 ee3d
00000100: 5858 f93d 83f3 4f3e 4fb9 7d3d fbc8 1e3e
00000110: a624 ca3d 1b91 783d 3ac1 a33e 59dd 453e
00000120: 7f95 763e 5e7a 443e 43b8 933c 4a9b 883e
00000130: df40 d2be 9de1 01bf 190c 0ebf c451 12be
00000140: 1d8e 103e e453 483e 76b9 a23d 7d3f b0be
00000150: f06f a7be 4b40 6d3e fd9b 683e e9c2 843d
00000160: 7b67 4ebd 79c8 1e3e f00a b73e 3c9f b13d
00000170: 4a53 22bc cb12 4bbd fb6d 8abe dd0a d53d
00000180: c617 683d 9fa9 823e b525 26bd 8483 1abd
00000190: 6c8a 6d3e a1f2 183e 43c3 3bbc 5da0 7fbc
000001a0: ec5e a43e 8a8b 9dbe a000 b3be 1be7 fabd
000001b0: 5ec5 5fbe a453 303f d1cb a5be 936c 42bc
000001c0: aad5 c3be 7fbc 0abe 9260 1fbb cbf7 72be
000001d0: 9c90 15be b908 0b3e 1160 87bd 12be b53d
000001e0: 68c4 02bc cef3 053e 4a06 9fbd 1fb6 a3be
000001f0: 1f64 693e af61 e9bf 0cd9 12c0 9cc2 75bf
00000200: 948b 2fbe 5dd7 cdbd fd27 6abf 0ed7 ffbf
00000210: d002 7dbf 9aef 3fbe fb71 9f3e 422e 1cbe
00000220: e73e 90be df59 f23d 17f5 9e3e f3ae 9cbd
00000230: b5d0 7c3e d3a6 953b 5cca 313e e02e 91bd
00000240: 885b 02be b4e2 b23e 85b5 943b 4bea e1bc
00000250: 74e2 32be fa69 0a3e
-0.05518037 -0.33398566 0.60977477 -0.2362818 0.029056227 -0.14267892 0.15320218 0.2033246
-0.14607443 -0.08739675 0.16338025 -0.30298272 0.112258606 0.39314204 -0.17796487 -0.015669368
-0.64821917 -0.1391766 0.68335986 0.2701061 0.1760556 -0.4859534 -0.41227338 0.29121596
0.1753751 0.20896438 0.18883128 -0.40159193 0.32838696 -0.2789382 -0.08187618 0.10765137
-0.44245872 0.51827806 -0.2002482 -0.23585373 0.4662834 -0.35701087 0.041420594 0.046649475
0.116556205 0.11885523 0.064291134 0.10395083 -0.39250758 0.33071616 0.11996068 -0.3021665
0.17122407 0.056338493 -0.016596507 0.0068590064 -0.088858485 0.115111776 -0.014264032 -0.401756
0.081598386 -0.15050027 0.10809586 0.07620186 -0.22743073 -0.36212453 -0.10214341 0.11630348
0.12175053 0.20307736 0.061944302 0.15506355 0.098702714 0.06068526 0.31983358 0.19322719
0.24080466 0.19187304 0.018032199 0.26680976 -0.41065118 -0.50734884 -0.5548721 -0.14289004
0.14116712 0.19563252 0.0794553 -0.34423438 -0.3270259 0.23169057 0.22715755 0.06482489
-0.050391655 0.15506162 0.35750532 0.0867295 -0.009907553 -0.04957847 -0.27037033 0.10402463
0.056663297 0.25520036 -0.040563304 -0.03772308 0.23197335 0.14936306 -0.011460128 -0.015602198
0.3210367 -0.30770522 -0.34961414 -0.12251111 -0.21852633 0.68877625 -0.32382062 -0.011866706
-0.3824895 -0.13548468 -0.0024319035 -0.23727338 -0.14605945 0.13577546 -0.0661012 0.08874144
-0.007981397 0.13081285 -0.077648714 -0.31974885 0.227921 -1.8232936 -2.2944975 -0.96000075
-0.17143089 -0.10050843 -0.9146727 -1.9987504 -0.98832417 -0.18743744 0.31141648 -0.15252021
-0.2817299 0.11833548 0.31046364 -0.076505564 0.2468899 0.004567006 0.1736235 -0.07089019
-0.12730229 0.34938586 0.0045382404 -0.02757754 -0.17469198 0.1351699

features.0.bias f4 [6]
00000000: c4f3 9dbb f60d dbbd 0b86 69be 8cc5 0c3e
00000010: 517e 8c3b 6317 213f
-0.004820319 -0.10696022 -0.2280504 0.13747233 0.004287519 0.6292631

features.3.weight f4 [16, 6, 5, 5]
00000000: 77db 433e 09c9 6f3e 56e8 d9bd 0896 f43d
00000010: 8ba1 9ebe 3fdb 493c f367 983d 7897 cf3e
00000020: daa7 f13c 2b06 073e 926b 01bf 6b57 933e
00000030: 6b9b 923e 22a8 263e 815a 89be 4272 98bc
00000040: e3ff c83e 0719 033e 05fa c6bd db35 60bd
00000050: cf40 e93e 8c42 d2be cea6 64bf f44b 1fbf
00000060: 3cb0 d3be 27a6 d9bc cbe7 843e 7806 a53d
00000070: 501a 81bd 9c7f 953e 8dd2 d5bd 0ab0 413c
00000080: ed53 533d e502 5cbe 7c6f 133e 7b4b ffbc
00000090: bbb4 bd3b fb46 0cbe ada4 b33c 3de2 74bc
000000a0: 63f7 393d 77aa d8bc 168a 443d 9054 cb3d
000000b0: a0ff 29bd b345 603e 5f37 dbbd 3700 18bd
000000c0: 14cb 6abe 2bbc 3dbf 6383 a53d 2372 1b3c
000000d0: 244a b93d 7e81 af3e 6699 b13d 9091 e13d
000000e0: 4427 92bc 9090 d23d 43f6 983e a03f ee3c
000000f0: 11f1 a9bd e394 ee3c a242 063d 760e a83d
00000100: 78b3 7fbb 9974 da3c 405b 1e3e 4b3b bf3d
00000110: ad74 223e 3639 a73e 813b 433e 6226 1dbe
00000120: b6c7 3dbf 3083 87bf f581 49bf 154d 30bf
00000130: bf93 92bd 8a9a 47be 1f0a 3bbe 7f90 1d3f
00000140: a775 bf3e 9f73 fbbd 7a65 403d 9984 86be
00000150: f922 ab3d 284c 973c 6f9a dfbd d304 90bd
00000160: 10ab 92bd 3c3b 37bd 7eef d53d 7370 c53d
00000170: ce96 3c3d 0490 123e fab4 8cbd 7825 783e
00000180: ac7a f53e 7859 a63e 79f4 563e 2ccb 36bf
00000190: 4b17 d03e f843 843e e8e8 483d f82d 013e
000001a0: afc9 57be a1b8 84be 3eba 203e 3422 903e
000001b0: 96ec adbe 7780 25be efa6 67be 36bb b83d
000001c0: 1b76 0e3e 0126 9fbe fe97 9cbe 305e bf3d
000001d0: 9564 d3bd 2309 6c3c d3c2 33be 54d6 f2be
000001e0: e90f 84be 7533 58bf 2d78 a3be 1bd3 083f
000001f0: 263b c03e 8725 fe3d b395 76bd 9717 e53c
00000200: 2bdf 0fbf 7a5c a3bf 75f9 223e ccda b93e
00000210: 175d f83c 0056 91bf c7f0 42bf fdaf 03bd
00000220: 72cb 1a3f e1b2 06be ef4e 81bf 19b1 27be
00000230: 85fd debe 4cb4 883e f554 adbd 926f 543f
00000240: e7d8 6a3f 4ccf 34bf 8286 f8be 8b2d fe3d
00000250: 6bda c63f e890 a93f b68b b7bd 1ea9 813e
00000260: f1c5 83bf f33c 98be ec0b 24bd 1eb3 4abe
00000270: 105f 38be 334d 303f c0a0 86be 9d94 a63e
00000280: 6643 a2bd cb74 73bd 7fa5 adbe df28 a7be
00000290: 4e8a 89be 2794 ce3d 8548 5c3d 3fc9 ecbb
000002a0: 9c6d ca3d 4a42 bbbe 1e59 e83e 8ab5 ca3c
000002b0: c125 083d 2df0 bcbe 585e f4be dad0 a03c
000002c0: 466d e83e bbe6 183f 45fa dbbe 838d 12bf
000002d0: b8cd eb3e 43a7 c83e 5409 f0be f737 0ebf
000002e0: 4fd3 f83d 7e22 8c3e c9ac 0cbe 156a 82be
000002f0: 244d 8dbe 95ef a93e 2bf8 9d3e e178 82be
00000300: c069 bebe 582b c9bd e7be 663e 61df 5a3e
00000310: cf40 aabe 32c0 ea3d 12f2 c43d c667 fb3e
00000320: 35bb 43bd beff a33d 2ee7 a5be 4f36 a5be
00000330: 96fe e7be 33c6 513e 77cc 73bd a52b b2be
00000340: b52d 0abe 8597 c53b dfb2 e7bc 102e 28be
00000350: fe3d f03d 525a 7a3e 8f77 d63e a5c4 64bd
00000360: 5892 61bd e09f 763d b88c 9c3e c6d7 82bb
00000370: b6b3 26bd bb72 bbbc 280b 293e ed33 b23e
00000380: 719c d33c ba16 a0be edeb ec3c 3a44 6a3f
00000390: 241f 023f 8d00 91be f007 df3e b7ea ef3e
000003a0: a651 ce3e bf13 803d f3b4 763e e715 153f
000003b0: 45ee 4c3d 0a63 053d 875d 423e bbd5 3cbc
000003c0: 34e1 3cbe 9322 a23e 04cd 64be ce9a b9be
000003d0: 92c4 5b3d 7bff 8cbe df73 7cbe 5290 0ebf
000003e0: ea12 5bbe 6b09 6a3d 831c 363e 0abc 273e
000003f0: c628 2ebe 3453 97be 0393 97bd 7486 a1be
0.19126688 0.23416533 -0.10640018 0.11942679 -0.30982623 0.012320339 0.07441702 0.4054525
0.029498983 0.13185947 -0.50554764 0.28777632 0.286342 0.16275075 -0.26826862 -0.01860917
0.39257726 0.12802516 -0.09715656 -0.05473886 0.45557258 -0.41066396 -0.89317024 -0.6222527
-0.41345394 -0.026568485 0.25958094 0.080578744 -0.06303847 0.2919892 -0.1044055 0.011821756
0.05159371 -0.21485479 0.14397997 -0.031163922 0.005789367 -0.13698952 0.02192911 -0.014946518
0.045401942 -0.026448471 0.04798325 0.099282384 -0.04150355 0.21901588 -0.107039206 -0.03710958
-0.2292903 -0.74115247 0.08081701 0.0094876615 0.09047344 0.34278482 0.086718366 0.11014092
-0.017840989 0.10281479 0.29875383 0.029083073 -0.08297933 0.02912373 0.03277839 0.08205883
-0.0039016884 0.026666926 0.15464497 0.09337481 0.15864821 0.32660836 0.19065668 -0.15346673
-0.7413286 -1.058691 -0.78713924 -0.6886762 -0.071570866 -0.19492546 -0.1826558 0.6154861
0.3739445 -0.12277912 0.046971776 -0.2627304 0.0835628 0.018468931 -0.10918128 -0.0703217
-0.07161534 -0.044734225 0.1044607 0.096405886 0.046042256 0.1431275 -0.06870456 0.24233043
0.47945154 0.32490134 0.20991696 -0.71403766 0.4064277 0.25833106 0.04905024 0.12615192
-0.2107303 -0.2592211 0.15696046 0.28151095 -0.33969563 -0.16162287 -0.22622274 0.09020083
0.13912241 -0.31083682 -0.3058471 0.09344137 -0.10321919 0.014406475 -0.17554788 -0.47429144
-0.25793388 -0.8445352 -0.31927624 0.5344712 0.37545127 0.124095015 -0.060201358 0.02796535
-0.561999 -1.2762597 0.15915473 0.3629974 0.030317826 -1.135437 -0.7614865 -0.032150257
0.6046668 -0.13154174 -1.0102214 -0.16376151 -0.43552795 0.26700056 -0.0846347 0.8298274
0.91737217 -0.7062881 -0.4854012 0.124110304 1.5535406 1.3247347 -0.089621946 0.2532434
-1.0294782 -0.29734 -0.040050432 -0.1979489 -0.18005013 0.68867797 -0.26294518 0.32535258
-0.079230115 -0.059437554 -0.33915326 -0.3264837 -0.2686333 0.100868516 0.053780098 -0.007226139
0.098841876 -0.36574012 0.4538049 0.024744768 0.03323913 -0.3690199 -0.4772823 0.019630838
0.4539587 0.59727067 -0.42964378 -0.5724718 0.46055388 0.3919011 -0.46882117 -0.55554146
0.12149679 0.27370065 -0.13737787 -0.2547156 -0.27597916 0.331906 0.308534 -0.25482848
-0.37190056 -0.0982272 0.22533761 0.21374275 -0.3325257 0.114624396 0.09616484 0.4910261
-0.047785956 0.08007763 -0.3240294 -0.32267997 -0.4531142 0.20485763 -0.059521165 -0.34798923
-0.13493998 0.0060300254 -0.028283535 -0.16423821 0.11730574 0.24448517 0.4188809 -0.055851597
-0.055071205 0.060211062 0.3057611 -0.0039930074 -0.04069873 -0.022881856 0.16508162 0.3480524
0.025831433 -0.3126734 0.028921092 0.91510355 0.50828767 -0.28320733 0.43560743 0.4685876
0.40296668 0.06253766 0.24092464 0.58236545 0.05003192 0.032565154 0.1898099 -0.011525567
-0.18445283 0.31667003 -0.22343832 -0.3625092 0.05365426 -0.27538666 -0.24653576 -0.55688965
-0.21393934 0.057137888 0.17784314 0.16380325 -0.17007741 -0.29555666 -0.07401087 -0.31547892

features.3.bias f4 [16]
00000000: 0f28 443e 10b0 0ebe 40c6 fe3c edeb 193e
00000010: 0795 9e3e 5cd6 f6bc 0cce e13e 528f fe3d
00000020: 2a6a febe 7cc8 003f 5cf7 6bbe 8a04 b23e
00000030: 0e43 d03e 03a9 25be a009 35be c231 f4be
0.19155906 -0.1393435 0.031100392 0.15031405 0.30973074 -0.030131511 0.44102514 0.1242968
-0.49690372 0.50305915 -0.23043579 0.34769088 0.4067616 -0.16177754 -0.17679453 -0.47694212

classifier.0.weight f4 [120, 256]
00000000: 9b6c af3e a327 1ebe 7648 2dbc 45cc abbd
00000010: 4f4f c63e a266 1c3e a45a 0f3d 7c3c 893d
00000020: fc73 bb3a 5daa a23e bb9b 333d c888 07be
00000030: 7693 87bf f0f6 16bf 8a5a 8dbe 5028 323f
00000040: 15b6 5f3f f84d 343e 9d00 b33e 413e 96be
00000050: 48ea 3a3d 1e76 d43d 23c8 f6bc 8781 00be
00000060: 9f8d 073a 0276 4b3e 3a47 9ebc 0464 06be
00000070: 9d16 32be 5870 4f3e f845 533e 6937 32bd
00000080: 3965 8a3e 9aa5 b53e 3195 a73c 857c 4239
00000090: b7ab 263d c7ad 2c3e c347 41bc b28c ae3d
000000a0: 34d2 283e c889 26bd 4227 353d 0282 9e3e
000000b0: d294 453e 149e a6be 7981 a53e 03c6 d0be
000000c0: c041 b63e 7bdc aebe ea48 ffbc 6ffe 093d
000000d0: f701 a0bd 3b02 81bc 7031 013d cc7f de3d
000000e0: e3a6 b5be f55a 303e 4480 0fbe 43ef 3cbd
000000f0: cd00 51be dc7c e43d 8cee 1dbe aaa2 f9ba
00000100: 52b5 8a3e 1ccb 0f3e 904c a7be 0eeb 50be
00000110: d43b 70be b5cd 423d 6fda fabe 1948 bebe
00000120: 2703 98bd e55a 5d3e 8cd4 eebe 9f5a 23be
00000130: bc12 d33d 1585 963d 49cf 41bd ad8c 46be
00000140: 0e22 2d3e c3bb 2b3e be5e 913e 1e65 72be
00000150: 7a31 1d3e 4278 eb3d 42b9 db3d 7da9 233d
00000160: e913 e33a b475 d23d 1bad 69be f747 1a3d
00000170: 2a8f 0dbf ea27 bebd c179 223e 897e e0bd
00000180: 231e f23c ee07 12be 1076 2f3d bfbf 533c
00000190: b48f 12be dfe7 fdbc b8cb a33c 86c9 56be
000001a0: ad34 453e cc32 74bc 799e e23d 87e6 7a3d
000001b0: b2a4 8b3e a512 8bbe e846 3bbe 8bfa babd
000001c0: 2567 d33e 0039 0b3e f8bd 293e 6a6f 173e
000001d0: 011e 473d 276f 173e 694c d53e 6f9c e03e
000001e0: 9b07 18be f783 bc3d 715d 263d de22 dd3d
000001f0: 831a 89bb 39a3 49bf d356 25bf eb60 933e
00000200: 56d3 903e 6501 c43e 9a03 6cbe 95b4 393d
00000210: f9cb 1cbd 9efa 2c3e cbb5 c3bc 04fb aebe
00000220: 72b1 8abd 1d61 b93d 2182 c5be 324f a73c
00000230: 71ff 2d3d ba81 7c3e c13f 56be d20f 003e
00000240: b482 263e aad3 b7bc 9634 0f3d 8c1d 4dba
00000250: 304b dbbe 1ff6 36be 1e43 d63d ebd4 8d3e
00000260: 23af d4be 43b1 6bbc 282f 3c3e 345b fabc
00000270: 43e0 d1be 139b 123c 6d7f f7be 5e20 02bf
00000280: 6afc 993e 625a 4f3e bf02 9d3d a70f 8dbe
00000290: 797c 363f 4e4c 153e f42e 5b3e 718a 8cbe
000002a0: c4bc a53e b8a7 ce3c 6a60 753e e832 0abd
000002b0: 609f 833d fc22 6abe 047b 423e 1407 a8be
000002c0: 213b 983e 92de 33bd 66f5 0a3f 3a65 49be
000002d0: 8a59 fb3e 7d60 d23e e016 1c3e 6a51 33be
000002e0: 442b 9abd 24df 003e 055f d23e 53c4 4dbb
000002f0: 6780 d53d 7d4e b4be 8e25 09be e8df dcbd
00000300: 6ed3 733d 5f7b 19be 06db b33d 7dba 963b
00000310: c5a3 013d 1a4c 243e f0fc 563c 3ba2 1fbe
00000320: 870a e0bd 9aa1 98bd 60b9 77bd ce53 6e3d
00000330: 6010 a4be ff3f 93be af62 54bb f2da 473c
00000340: bfe1 1cbe 6026 a53d 97cb 9cbe 8064 5ebe
00000350: 9bb2 8a3e 0596 71bd 8dab e9bb cab3 a3be
00000360: 5839 6e3e dbb5 95be 9625 2cbe f1ca 28be
00000370: 1d30 f3bd 9992 8c3c 3ff1 53be bfa2 38bd
00000380: 3d21 81bd 2aaf 74be a62e 9f3e f7d8 65be
00000390: 3e25 0abe 05e3 343e b1ae 27be f492 d0be
000003a0: a5b6 07be b6b8 123e 735d 4abe 5c6b b6be
000003b0: e95e 55be 6ee1 723c 5d57 063e 92db 21be
000003c0: c450 f4be 1ee4 ab3e 7d51 1c3e ac4d 903e
000003d0: 8a62 e0be e341 253e 165f 5e3e af63 583e
000003e0: 824b e4bd 1dbf 0f3e c55d 35bd 5923 81bc
000003f0: ca3d 233d 496a cebc fe8b 50bd 7bf1 503d
0.34262547 -0.15444808 -0.010576358 -0.08388571 0.38732383 0.15273526 0.03499855 0.067009896
0.0014301534 0.31770602 0.043849688 -0.13235772 -1.0591877 -0.58970547 -0.27608138 0.6959276
0.8738721 0.17607868 0.34961405 -0.2934437 0.045633584 0.103740916 -0.03012473 -0.12549411
0.00051709445 0.19869235 -0.019321073 -0.1312409 -0.17391439 0.202577 0.2063216 -0.043509874
0.27030352 0.35477906 0.020456882 0.00018547669 0.040691104 0.16863166 -0.0117968945 0.08522929
0.16486436 -0.040658742 0.044226892 0.30958563 0.19295052 -0.3254248 0.32325342 -0.4077607
0.35597038 -0.34152588 -0.031162698 0.033689912 -0.07812875 -0.015748134 0.031541288 0.10864219
-0.35478887 0.17222197 -0.14013773 -0.046126615 -0.20410462 0.111566275 -0.1542303 -0.001904567
0.2709146 0.14042324 -0.326756 -0.20402166 -0.23460323 0.04755946 -0.48994777 -0.3716438
-0.07422476 0.21616705 -0.46646535 -0.15952538 0.10306308 0.07349602 -0.047316823 -0.19389601
0.16907522 0.16770844 0.28392595 -0.23671386 0.15350905 0.11497547 0.107286945 0.03995656
0.0017324659 0.10276356 -0.22819941 0.037666287 -0.55296576 -0.09284957 0.15866758 -0.10961635
0.029555386 -0.14260837 0.042837203 0.012924134 -0.14312631 -0.030994354 0.019994602 -0.20975313
0.19258375 -0.014904689 0.110653825 0.061255004 0.2727409 -0.27162662 -0.18288767 -0.091298185
0.4128963 0.13595963 0.16576374 0.14788595 0.0486126 0.14788495 0.4165986 0.4386935
-0.14846651 0.09204858 0.040616456 0.10797666 -0.0041840686 -0.78764683 -0.6458561 0.2878488
0.28286237 0.38282314 -0.23048249 0.045338232 -0.03828046 0.16892478 -0.023890397 -0.34175885
-0.06772126 0.09051726 -0.38575843 0.020423505 0.042479936 0.24658862 -0.20922758 0.12506035
0.16260797 -0.022439796 0.03496226 -0.0007824532 -0.428308 -0.17867325 0.1046202 0.27701506
-0.4153987 -0.014385524 0.18377364 -0.030561067 -0.4099141 0.008948105 -0.48339406 -0.5083064
0.3007539 0.20249322 0.076665394 -0.27551004 0.7128368 0.14579889 0.2140463 -0.27449372
0.3237058 0.025226459 0.2396256 -0.033739954 0.06426883 -0.22864908 0.18992239 -0.328179
0.29732612 -0.04391343 0.542807 -0.19667521 0.4909175 0.4108924 0.15243101 -0.17511526
-0.075277835 0.12585121 0.4108812 -0.0031397536 0.104248814 -0.35216132 -0.13393232 -0.10784894
0.059527807 -0.14988469 0.0878201 0.004599868 0.031650323 0.16044655 0.013121828 -0.1558923
-0.10939508 -0.07452698 -0.06047952 0.05818539 -0.32043743 -0.28759763 -0.0032407453 0.012198197
-0.1532049 0.0806396 -0.30624077 -0.21718025 0.2708939 -0.05898096 -0.007131046 -0.31973106
0.23264062 -0.29240307 -0.16811213 -0.16483666 -0.11874411 0.017159747 -0.20697497 -0.04507708
-0.06305168 -0.23894945 0.31090277 -0.22446047 -0.1349077 0.17664726 -0.16375233 -0.40737116
-0.13253267 0.14328274 -0.1976221 -0.35628784 -0.20836987 0.014824254 0.13119264 -0.15806416
-0.4771787 0.33572477 0.1526546 0.2818426 -0.4382518 0.16138415 0.2171596 0.21131776
-0.111472145 0.14037748 -0.04427888 -0.015763925 0.03985385 -0.025197165 -0.050914757 0.051011544

classifier.0.bias f4 [120]
00000000: 85c5 423e 1873 91b8 855a 21bb 6786 63be
00000010: 2a9b 243e d445 a23e 2b32 168e 497a 4d3d
00000020: ad53 c33e 5de2 7dba 1327 0dbe c4eb 0cbd
00000030: a35d 1bbe 506a fbbb 54b7 95be f82b 22a7
00000040: 3da6 4b84 f4c8 6b3b b4e7 98bc ca2b d6be
00000050: e478 923e 23ac 95bc 4488 263d d2d7 b03e
00000060: 95fd aabd e1ce 43bc cae2 24be 5a59 b53d
00000070: 3f0b b83e 2776 c83c 40a6 94be 9417 8c9f
00000080: 83de a5be 63ae 10bd 19f0 133e 538c d23e
00000090: 5cf0 833e d5b7 823c f086 013e eb6b 853e
000000a0: 4d07 29bc eca4 a83d be09 d1bd 8c27 75be
000000b0: e9fc e53e 8cd6 ee3d 0a65 763d 07a2 093f
000000c0: 9ae1 173d 8190 40bd 6289 7c3e e411 203e
000000d0: 9c93 c5bc 754f 76bc bfcd d0bb 81a2 513e
000000e0: c8cd cc3e e049 a93d 8e1c 90be 28d7 843e
000000f0: 1a33 d63d 0224 ad3d fbc8 e5b7 68f9 02bc
00000100: dd74 9a3e 79ad 12aa 661e 56bd 4f56 cc3e
00000110: 7b96 f6bc 88ad 1a3e 7484 f1bd 81b5 36be
00000120: 5f23 043e 4b2c b0be 31f8 293e f9f4 253e
00000130: 725d 3a3e 8d9a 773f 3be3 acbb dbbf 803d
00000140: 4ac4 13be 448c ccbd f3f1 0cbd 72fa 67bd
00000150: d25f 90bd 3780 27be a136 cfbc b77f 3d3f
00000160: dc37 bf3d f803 b6bd 444e f0bd 7db2 e53e
00000170: 65ce 223d 8092 b33e f737 47bd ef73 32be
00000180: cd94 5cbc 07c5 8f3e 9c99 bc3e 9411 1e3e
00000190: 0f58 023f 219c 583e cf19 3daa c6c5 c63c
000001a0: 92d9 0ebc 51e8 953e 9fd0 343e 392e 20ba
000001b0: 7bca c83e c9b3 fb39 3766 bb3e 5e4b e1bd
000001c0: 8d0b 093f 8b48 ff3d 93db 45b9 3d05 1cbb
000001d0: ad61 99bc 1a0f 0d3e 2d1e e8b2 814a c23d
0.1902066 -6.935577e-05 -0.0024620604 -0.22219239 0.16074815 0.316939 -1.8513082e-30 0.05016545
0.38149777 -0.0009684915 -0.13784437 -0.03440453 -0.15172438 -0.0076725855 -0.2924143 -2.2505852e-15
-2.3938868e-36 0.0035977932 -0.018665172 -0.41830283 0.28607857 -0.018270558 0.040657297 0.34539658
-0.08349148 -0.011951179 -0.16102138 0.08854933 0.3594608 0.024470402 -0.2903309 -5.933131e-20
-0.32396325 -0.035322558 0.14447059 0.41122684 0.25769317 0.015956799 0.12649131 0.26058897
-0.010316682 0.08234581 -0.10206936 -0.23940867 0.44919518 0.11662015 0.060154952 0.5376286
0.037080385 -0.04701281 0.24661782 0.15631825 -0.024118237 -0.0150335925 -0.006372183 0.20472147
0.4000075 0.08266044 -0.28146785 0.259454 0.104589656 0.084541336 -2.7392516e-05 -0.007994033
0.30167285 -1.302759e-13 -0.052275084 0.39909598 -0.030101052 0.1510526 -0.117928416 -0.17842676
0.12904118 -0.34408793 0.16598584 0.16206731 0.18199709 0.967202 -0.0052761114 0.062865935
-0.14430347 -0.09987691 -0.03441043 -0.056635328 -0.07049526 -0.16357504 -0.025294604 0.74023
0.09336826 -0.08887476 -0.11733678 0.44862738 0.039747614 0.35072708 -0.048637357 -0.17427038
-0.013463211 0.28080007 0.36835945 0.15436393 0.50915617 0.21153308 -1.6795526e-13 0.024264228
-0.008718865 0.29278806 0.17657708 -0.00061104033 0.3921698 0.000480084 0.3660142 -0.11000703
0.5353325 0.12465008 -0.00018869182 -0.0023806833 -0.018723333 0.13775292 -2.7022077e-08 0.09486867

classifier.2.weight f4 [84, 120]
00000000: 3aff 0fbe 0a71 d53a 53db 9031 6d10 9a3d
00000010: e990 50be 5011 94be a1aa 0280 7e77 3fbd
00000020: f051 91bd 24fd a5bc 85cb b9bc 3a67 e8bc
00000030: f48a bbbc 3748 593c abe7 003d 44e1 7cb6
00000040: a1d6 0400 c94e 4dbd fa29 1a3e 0c1f 29bf
00000050: 300c 3bbe b2a0 67bd 0144 99be 6d7d abbb
00000060: 8942 9cbd 835c b03c aac9 823d 1262 bebc
00000070: 8823 80bd 3e2c 76be 8d3d b83e 0dc7 0700
00000080: e27b 2ebb ca0d 58be 611a bcbe 10f3 09be
00000090: 6b72 62be d55e 01bd 5213 21be 5e44 213d
000000a0: 4373 bb3c dde9 0cbc fb1c ce3d aea3 163d
000000b0: 58ae aebd ee6d 04bf 17d2 15be c119 b03d
000000c0: 581b d73d d990 c5be 238f ad3d 56f1 d7be
000000d0: fd3f f33d 7e69 f93a 1ad9 0100 2b2a d43e
000000e0: fbef 343d f583 04be 206d b83e 8d6e 523e
000000f0: 721d 833e bbb6 0d3c 6289 8332 120a 92bd
00000100: 57b8 29bd e866 2e00 1a84 21be 58fa a0be
00000110: b648 52bd e39c 26be 8980 433e d0b4 f7be
00000120: 450f 12bc d1a7 4fbe 764f 2ebe e86a 5abe
00000130: de06 973e afbf 84be 49fc 09bc ba64 ee3c
00000140: 9f20 003e 1bac 0d3f 1bb6 09be 0d94 64bd
00000150: 150e 15bd c650 a43c 79d0 99be 4bf3 473c
00000160: 89a4 973e c86e 9cbd 56a5 eb3e 9f4d a03c
00000170: 059c 20be e793 113e df24 5e2d fd5d 36be
00000180: 2c4b 43ba 71ea 133e e043 18bd 5a0f 3dbe
00000190: 958d 43bd 19e6 023e 08d5 a4ba d234 453d
000001a0: af8c 19be 8033 64bd 0164 d6bd fb09 f6bb
000001b0: a182 95bd bc1d 263e d99e 7c3d 657a 9dbc
000001c0: fe0f ec3d 37f5 88bd edc6 7bba 8102 b83c
000001d0: 973a 1b3d 486a d4be 5c79 0d80 c330 a4be
000001e0: 3af7 3cbc 6f05 2a3b e6e5 85bd 4e7a f13d
000001f0: 8216 82bd fdc9 90be 4974 2d00 754b eabe
00000200: bf80 22bc a7bb e63b c0b4 e4bd cd20 5e3b
00000210: a47b b13d 0e27 aa3d 7c6c 253c 937f e6b7
00000220: 9611 1a00 0bae 1a3d 988d 253c 3eb2 48be
00000230: 82e6 d23c 02f3 f03d 7d38 41be 9f8e 98be
00000240: 1c39 0fbe 3f7d cebc fa1b 423e 877d a33c
00000250: de56 7a3e 0ae7 9cbd db74 223e 2e9e 0480
00000260: 6313 76bc 34bc a2be 3d96 b5bd bf60 22be
00000270: 68ec 9cbe 8f98 963d 3152 603e 90e1 403d
00000280: e1dd 4fbc fd49 f33d 47a6 e2bd 81f5 b53e
00000290: bc13 22be becb 0ebe d61d 5dbe 4b95 933c
000002a0: b1d0 203e f446 5ebe f5c7 103e c850 a4be
000002b0: 574a 213e 391e ca3c 9ae4 1abd 935a db3c
000002c0: ff5d 223e 94ae 183e 080b 0bbe 7e48 94bd
000002d0: 8b08 b73e 4d46 833d b118 5a22 0d35 4fbc
000002e0: d585 d1bd 18b6 0f80 39f5 c4bd 4bfe 87be
000002f0: a13a 0abd 1969 363e a7a9 373e 1c7a 01bf
00000300: 9d66 b1be 0c7a 1abe df28 8cbd 286f a4be
00000310: 8b32 d2bd 43d7 ce3d d167 a039 5002 d8bd
00000320: 4e3b 943e d4e5 63bd 752f 9fbd 3d71 ef3d
00000330: 5240 bb3d 2de1 fb3d 73f6 95be 6e66 d63c
00000340: dec9 433e 6c17 0ebe 3fe1 553e c187 e63c
00000350: 9631 5b3e 422b 833d 5637 6fbd 1b70 02be
00000360: f8f8 a83c 4434 9c3d d9dd bd3d cd79 e9bc
00000370: 5d34 133e b55e b43e 07d8 763a 9fe0 ccbc
00000380: 24e7 453d 7197 d539 0e72 8abb 6f89 0cbc
00000390: 0ec0 30be bcb7 3b3e 4b5f 1fbe e0ba 1d3c
000003a0: 86bb 633e 1c6e 36bd e825 953b a16f 7c3d
000003b0: adcb 23be 2392 26be 12a9 2e00 9c8f 68bd
000003c0: 17ab 3780 fa3b 1880 9a61 1200 529c 83aa
000003d0: ebab afa8 feca b4a1 a09b 1401 4e0f 7e94
000003e0: 9342 852b 5c69 2180 eb13 97ac f568 0a80
000003f0: 82a4 7bae b7e5 8e81 bc71 ddaa 20aa 5f01
-0.14062205 0.0016284299 4.215886e-09 0.07522664 -0.20367779 -0.28919458 -2.44881e-40 -0.046744816
-0.070957065 -0.020262308 -0.022680053 -0.028369535 -0.022893406 0.013261846 0.031470936 -3.7682048e-06
4.44336e-40 -0.050123964 0.15055075 -0.66063 -0.18266368 -0.056549735 -0.29934695 -0.005233458
-0.07629878 0.021528488 0.063861206 -0.023240123 -0.06256777 -0.24040315 0.3598446 7.14254e-40
-0.0026624133 -0.2109901 -0.36738876 -0.13471627 -0.2211396 -0.03158458 -0.15730026 0.03937184
0.02288211 -0.008600679 0.10064121 0.03677719 -0.08529347 -0.5173024 -0.14630924 0.08598662
0.10503262 -0.38587072 0.08474567 -0.42176312 0.11877439 0.0019028632 1.69717e-40 0.41438422
0.044174176 -0.12940963 0.36020756 0.20549984 0.25608402 0.008649523 1.5312882e-08 -0.07130827
-0.041435566 4.261349e-39 -0.15773049 -0.31440997 -0.051338874 -0.16270785 0.19092001 -0.48380136
-0.008914773 -0.2027886 -0.170225 -0.21329844 0.29497427 -0.25927493 -0.008421966 0.029100765
0.12512444 0.5534074 -0.13448374 -0.055805255 -0.036390383 0.020058047 -0.30041865 0.012204002
0.29617718 -0.07638317 0.4602458 0.019568263 -0.15684517 0.14216577 1.2627426e-11 -0.17809291
-0.0007449861 0.14444901 -0.037174106 -0.18462887 -0.047742445 0.12783088 -0.0012575695 0.048146077
-0.14995073 -0.055713177 -0.10468293 -0.007508514 -0.07300306 0.1622228 0.061674926 -0.019223401
0.11526488 -0.06687396 -0.00096045324 0.022462131 0.037897673 -0.41487336 -1.237397e-39 -0.32068452
-0.011533553 0.002594318 -0.0653799 0.11790906 -0.06351949 -0.28279105 4.174313e-39 -0.45760694
-0.009918391 0.007041413 -0.11167288 0.0033894063 0.08666161 0.0830823 0.0100966655 -2.7477543e-05
2.394032e-39 0.037763637 0.010104559 -0.19599244 0.02574468 0.117651 -0.18869205 -0.2979631
-0.13986629 -0.025206206 0.18955985 0.019957317 0.244472 -0.07661255 0.1586489 -4.24086e-40
-0.015019271 -0.31784213 -0.08866546 -0.15857218 -0.30649114 0.07353317 0.21906354 0.047090113
-0.012687177 0.118793465 -0.11066871 0.35538867 -0.1582784 -0.13944909 -0.21593413 0.018015524
0.1570461 -0.21706754 0.14138778 -0.3209288 0.15751015 0.024672614 -0.037815668 0.026776588
0.15856169 0.14910346 -0.13578427 -0.07240389 0.35748705 0.06409893 2.955758e-18 -0.012646926
-0.102306046 -1.442855e-39 -0.09617085 -0.26561198 -0.03374732 0.17813529 0.17935811 -0.5057695
-0.346486 -0.1508562 -0.06843733 -0.32116055 -0.102635466 0.10099652 0.00030594927 -0.10547316
0.28951496 -0.055639103 -0.077727236 0.1169152 0.091431275 0.12298808 -0.29289588 0.02617189
0.19119975 -0.13876122 0.20886706 0.028140904 0.21405634 0.06404735 -0.05840238 -0.12738077
0.02062653 0.076271564 0.0927083 -0.028500462 0.14375444 0.35228506 0.0009416346 -0.025009451
0.048316136 0.00040739359 -0.004225022 -0.008577689 -0.17260763 0.18331808 -0.15563695 0.009627074
0.22239503 -0.044538602 0.004551638 0.061629895 -0.15995665 -0.16266684 4.285084e-39 -0.05677758
-5.112328e-39 -2.225567e-39 1.688052e-39 -2.3378744e-13 -1.950346e-14 -1.2251006e-18 2.7294962e-38 -1.2826741e-26
9.468696e-13 -3.068367e-39 -4.2938895e-12 -9.56006e-40 -5.7216905e-11 -5.2492186e-38 -3.9336405e-13 4.108069e-38

classifier.2.bias f4 [84]
00000000: 3c3e a53d 0bf7 7bbd 9234 83b8 d344 253e
00000010: 5f35 943e c373 70bd 4c39 de3d bda2 4f3e
00000020: 5f52 973d 0bd7 b83e 26c1 403e e392 073f
00000030: 23eb aa3e a34f 643f 31a9 8dbb e77a e3ab
00000040: 6704 dcb9 2114 f73c 1f01 233e 6393 073f
00000050: a55e 07be 20d0 953e 45e9 74b2 13d6 83bc
00000060: 5156 193f 71d1 9a3e 1bf4 e2bd 0125 30bd
00000070: b10f fdb0 cc02 f9a9 0370 323e 868a 71be
00000080: e9fb d6a7 853f 3dbe 08f0 763e b68e 253e
00000090: fffe 033f 5810 39be 0be4 7c3d 9ad8 3b3c
000000a0: b4df 75bd 95e7 203f 1afb 91be c677 ca3e
000000b0: 16b9 f63d 1ccd 943e e3af c53e 60ff a5bb
000000c0: 5429 693e 8950 edbc bf7c 7ebc 71f9 a93d
000000d0: a9bb e0be c26a c83e fd47 10bb f452 53b7
000000e0: 0211 cabd 67cd 0e3f d9f9 f93e 0958 ef3e
000000f0: 3a25 cb3e 931c c73e 96ec d43e 7bb0 9c3e
00000100: da69 96be d3fa bf3e 2cfe fa3e e755 09b3
00000110: 13ab a23d 1b77 01bd a2ab a23e fdd8 933e
00000120: edb6 9dbb 477b 103d d1fa f53d 93ad 3c3f
00000130: 4008 2d3e 6e9d 253e 4a43 a23e 57a4 083c
00000140: dd54 933e 7658 8e3e 6175 07bd be56 3e3e
0.08068511 -0.061514895 -6.256359e-05 0.16139536 0.2894697 -0.05870415 0.10850772 0.20276923
0.07388758 0.36101565 0.1882368 0.52958506 0.3338252 0.89184016 -0.0043231477 -1.6163432e-12
-0.0004196495 0.030160965 0.15918396 0.5295927 -0.13219698 0.2926035 -1.4255709e-08 -0.01609329
0.59897333 0.30237916 -0.11081716 -0.04300404 -1.8412633e-09 -1.10583065e-13 0.17425542 -0.23587999
-5.9670053e-15 -0.18481262 0.24115002 0.16167721 0.5156097 -0.18072641 0.061740916 0.011465216
-0.060027793 0.62853366 -0.28511888 0.39544505 0.12047021 0.29062736 0.38610753 -0.0050658435
0.22769672 -0.028969066 -0.0155326715 0.0829953 -0.43893173 0.3914395 -0.0022015565 -1.2595894e-05
-0.09866525 0.5578217 0.4882343 0.46746853 0.3967684 0.38888988 0.4158675 0.30603394
-0.29377633 0.3749605 0.49022043 -3.1975926e-08 0.07942786 -0.03160773 0.3177157 0.28876486
-0.004813066 0.035273816 0.1201073 0.73702353 0.16897678 0.16173336 0.31691962 0.008339963
0.28775683 0.27801865 -0.033070926 0.18587777

classifier.4.weight f4 [10, 84]
00000000: 62e2 09bd e49b 2c3e 536a cc80 c50b e33d
00000010: b1b8 623c 2dac 3cbe eb2d 56be a87a cebc
00000020: 416e d4bd ff89 f1bd 9564 d5be e620 fe3c
00000030: 4ad2 f43d ad53 293e 9e78 3e3c ec08 983a
00000040: 9ccb adbb 22d5 4ebe 61b3 b83d f224 673e
00000050: 7dd0 023d 85dd c23d 1b66 16bb bb01 6a3d
00000060: 4d2d 033e 9c80 563e d175 313e adcc 1cbe
00000070: f13f 0600 0014 1907 6dec a2be 6408 ce3d
00000080: 736d bbbb e115 76be 077e debd 9ff7 b3be
00000090: b8c3 533d d257 22be 78b5 b53d 6744 4a3e
000000a0: ed9c 84bd bfce 7b3e 9640 253e d906 bdbf
000000b0: c4fd 4bbe 4b13 523d 23cc 463e a122 41bb
000000c0: 9633 74be a149 27be 0ac3 d0bd fe90 1ebe
000000d0: 0256 2fbe d6d5 92be f3f9 e8bc 6020 0b3d
000000e0: 01c3 44be c134 a43e 09fe 0ebe ff69 553c
000000f0: 1972 58be 425e 95be e962 ae3d 2060 97bc
00000100: b23c 073d b191 733e ca2d d1bd 0eed 42b4
00000110: 1128 28be 7b67 7d3b b601 75bd 9ec9 e13e
00000120: c3ed bd3c 314c 02be 1c28 023e 3716 fdbe
00000130: 4da3 db3d a638 0e3d 78ce 473e 4ca3 e5be
00000140: 175e 133e 2533 a13c d976 e33d 12fe 5abe
00000150: 8da2 463d d686 91be e200 1580 6e90 1dbd
00000160: df0f a43e 56b0 b03e de45 d53d beab 143d
00000170: 375a 313d c5c2 27bf a9d8 1f3e 566e 303d
00000180: 857a 37bd 076e 05bf c9f2 a127 5c0b 0d3a
00000190: 198e 8636 fb03 0cbe f296 3f3e 994e 2dbe
000001a0: 7751 59bd 6f4e 503d ba48 f63b 4f85 b9be
000001b0: 6027 df3c 2851 5ebd e36e 303e 9ef1 d13d
000001c0: c5d5 2580 d9a8 3180 4ac7 c0be d476 35be
000001d0: f8cc 50bb 7c4e 563b b98f a53c 611a 84be
000001e0: bb3e 9cbe 03e4 043d 4320 e23d 99ef e9bd
000001f0: a7dc 9dbc cdd8 c1be 2e95 4f3e 96dc 8dbf
00000200: 2571 31be a9b0 bfbc 0561 ccbe 067d f9b7
00000210: 00a9 51be 9480 e63d 934b 883d 3ebe 513e
00000220: 6fae 49be 86ff 723e ee52 2d9e ce34 713c
00000230: a600 84be 7190 c9bd e951 a03d c591 603e
00000240: a7aa 563e d7e6 57be 0a1a 0abe 8b70 ccbd
00000250: 1993 bc3e 6d2f 80be b65a 98be 414d 4d84
00000260: a94c ffbc 32d0 9c3a 9a78 d7bd bb57 a9be
00000270: 6ec3 bc3c 5194 113d f5e0 063d c294 45bf
00000280: 1eb9 b53e bb40 1e3e eeb6 4c3e 7aa7 81bd
00000290: 105a 07bf ea68 d2be 6c55 e2bb a65e 87be
000002a0: 86b7 bc3c 90e1 c0bd e9e2 8500 4b52 ca3d
000002b0: d54e f23d ba89 c4bd ab55 f5bd d5af 8f3d
000002c0: 9dd6 7c3e 3492 d43d 15ed b23d 9533 873d
000002d0: 451b 853d a60b 813e 8afd 4f1c a5ec ff3b
000002e0: 5fc6 6bbc 1ad0 a139 13bb 8a3c ccb0 693e
000002f0: ed57 d0bc a608 6ebe 521f b13b 08d2 95bc
00000300: b7f0 0e3e 34d2 c9be 4386 b7bd 2b1e 87be
00000310: d324 0d80 9d65 4c80 bd75 56be b24d 93bd
00000320: f527 9ebc 171e 30bb 9120 92be add5 afbe
00000330: 1609 8ebd 660e 453e d434 05be f0f2 41bc
00000340: 1199 e6bd 53d8 633e 40b0 38be 533c 42bf
00000350: 6809 8f3d 7085 803e c800 803e ee86 5f39
00000360: 6aa3 9f3c 7dea 03be bf8f 62bd 8098 6ebc
00000370: d438 07be cd62 75bd 2ef6 17bd 2fac 98bc
00000380: 5c73 32be 361d 603e a6be 47bb 2739 1dbe
00000390: ad51 47be 5f36 ca3d 08e4 bc3d 21ca a33d
000003a0: 9162 4b3e 50df 9b3e 5683 f93c d4fe 1cb7
000003b0: 9709 fbbd f543 40b8 74b0 3bbd 4d59 e2be
000003c0: 4d36 04be c986 343c 319e 8cbe 7aec d93e
000003d0: ad03 3cbe 191c 86bd 49e5 b23e 4bc0 033d
000003e0: 0ff5 9abd 18d4 6c3e 49c7 ccbc be9c f4be
000003f0: bfb4 a4be 8c6a c1bd 2a65 0a80 8704 6dbe
-0.03366316 0.16856343 -1.8772583e-38 0.11086229 0.013837979 -0.18425055 -0.20915954 -0.025204971
-0.10372592 -0.11793899 -0.416783 0.031021547 0.11954172 0.16535826 0.011625437 0.0011599339
-0.005303813 -0.20198491 0.09018589 0.22572687 0.03193711 0.09514908 -0.0022949043 0.057130557
0.1281025 0.20947498 0.173301 -0.15312453 5.73951e-40 1.1516318e-34 -0.31821004 0.10060194
-0.0057198345 -0.24031784 -0.108638816 -0.35149857 0.051700324 -0.15853813 0.08872503 0.19752656
-0.06475244 0.24590586 0.16137919 -1.4767715 -0.19921023 0.05128793 0.1941381 -0.0029470103
-0.23847803 -0.16336681 -0.10193451 -0.15484998 -0.17122653 -0.2867877 -0.028439498 0.033966422
-0.19215013 0.32071498 -0.13964094 0.01302576 -0.21137275 -0.29173476 0.08514959 -0.018478453
0.033016868 0.23786046 -0.10213812 -1.8153898e-07 -0.16421534 0.0038666415 -0.059816085 0.44099134
0.023184663 -0.12724377 0.12710613 -0.4943101 0.107245065 0.034721993 0.19512355 -0.44851148
0.14391361 0.019677708 0.11106653 -0.21385983 0.048494864 -0.28423184 -1.928862e-39 -0.038467817
0.3204336 0.34509534 0.10413717 0.0362966 0.043298926 -0.6553157 0.15609993 0.043073975
-0.044794578 -0.52121013 4.4949705e-15 0.0005380416 4.0100535e-06 -0.13673393 0.18709925 -0.16924514
-0.053056207 0.05085605 0.007515994 -0.3623452 0.027240455 -0.054276615 0.172298 0.10251163
-3.4746e-39 -4.56051e-39 -0.37652045 -0.1772111 -0.0031860452 0.003270059 0.020210134 -0.25801376
-0.3051661 0.03244401 0.1104131 -0.11422653 -0.019270254 -0.37860718 0.20271751 -1.1082942
-0.17328317 -0.023399668 -0.3991777 -2.9741332e-05 -0.20474625 0.11254993 0.0665504 0.20482728
-0.19695447 0.23730287 -9.175693e-21 0.014722062 -0.25781745 -0.09842003 0.07828123 0.21930607
0.20963536 -0.21084152 -0.13486496 -0.09982403 0.36830977 -0.25036183 -0.29756707 -2.4133107e-36
-0.031164484 0.0011963903 -0.1052105 -0.33074746 0.023042407 0.035541836 0.03292938 -0.7718011
0.35492796 0.1545438 0.19991657 -0.06330772 -0.528718 -0.41095668 -0.0069071557 -0.264394
0.02303673 -0.09418023 1.2295521e-38 0.098789774 0.11831442 -0.09596582 -0.119792305 0.07015959
0.24691243 0.103794485 0.08736626 0.06601635 0.06499342 0.252042 6.8818246e-22 0.0078101926
-0.014390557 0.0003086336 0.016934907 0.22821349 -0.025432551 -0.23245487 0.005405345 -0.018288627
0.13959013 -0.39418185 -0.08961155 -0.26390204 -1.207071e-39 -7.01595e-39 -0.20943351 -0.071925536
-0.019306162 -0.0026873404 -0.2854047 -0.3434271 -0.06935327 0.19243774 -0.13008434 -0.011837706
-0.11259664 0.2225049 -0.18035984 -0.758733 0.06984216 0.25101805 0.25000596 0.00021317202
0.019487102 -0.12882419 -0.05531287 -0.014562726 -0.13205272 -0.059908677 -0.03710001 -0.018636791
-0.17426819 0.21886143 -0.0030478626 -0.15353833 -0.1946475 0.09873652 0.09223181 0.079975374
0.19861819 0.3044381 0.030458134 -9.357656e-06 -0.122576885 -4.5839657e-05 -0.045822576 -0.44208756
-0.12911339 0.011018463 -0.2746444 0.4256323 -0.18360777 -0.06548328 0.34940556 0.032165807
-0.075662725 0.23127782 -0.02499737 -0.47775835 -0.32169148 -0.0944415 -9.54646e-40 -0.23146258

classifier.4.bias f4 [10]
00000000: 81d1 01bc d5f9 06bf 543f 223d d0d4 4d3e
00000010: 77d4 59bd 0579 823d 00e1 9b3e 5fde 7d3d
00000020: 3235 cf3d 2db9 42be
-0.007923485 -0.52724963 0.039611176 0.20100713 -0.053181138 0.06370739 0.304451 0.061979648
0.10117568 -0.19015951
